…
   "execution_count": 62,
   "id": "89b674cf",
   "metadata": {},
   "outputs": [
    {
     "name": "stdout",
     "output_type": "stream",
     "text": [
      "Model: \"vgg16\"\n",
      "_________________________________________________________________\n",
      "Layer (type)                 Output Shape              Param #   \n",
      "=================================================================\n",
      "input_5 (InputLayer)         [(None, 160, 160, 3)]     0         \n",
      "_________________________________________________________________\n",
      "block1_conv1 (Conv2D)        (None, 160, 160, 64)      1792      \n",
      "_________________________________________________________________\n",
      "block1_conv2 (Conv2D)        (None, 160, 160, 64)      36928     \n",
      "_________________________________________________________________\n",
      "block1_pool (MaxPooling2D)   (None, 80, 80, 64)        0         \n",
      "_________________________________________________________________\n",
      "block2_conv1 (Conv2D)        (None, 80, 80, 128)       73856     \n",
      "_________________________________________________________________\n",
      "block2_conv2 (Conv2D)        (None, 80, 80, 128)       147584    \n",
      "_________________________________________________________________\n",
      "block2_pool (MaxPooling2D)   (None, 40, 40, 128)       0         \n",
      "_________________________________________________________________\n",
      "block3_conv1 (Conv2D)        (None, 40, 40, 256)       295168    \n",
      "_________________________________________________________________\n",
      "block3_conv2 (Conv2D)        (None, 40, 40, 256)       590080    \n",
      "_________________________________________________________________\n",
      "block3_conv3 (Conv2D)        (None, 40, 40, 256)       590080    \n",
      "_________________________________________________________________\n",
      "block3_pool (MaxPooling2D)   (None, 20, 20, 256)       0         \n",
      "_________________________________________________________________\n",
      "block4_conv1 (Conv2D)        (None, 20, 20, 512)       1180160   \n",
      "_________________________________________________________________\n",
      "block4_conv2 (Conv2D)        (None, 20, 20, 512)       2359808   \n",
      "_________________________________________________________________\n",
      "block4_conv3 (Conv2D)        (None, 20, 20, 512)       2359808   \n",
      "_________________________________________________________________\n",
      "block4_pool (MaxPooling2D)   (None, 10, 10, 512)       0         \n",
      "_________________________________________________________________\n",
      "block5_conv1 (Conv2D)        (None, 10, 10, 512)       2359808   \n",
      "_________________________________________________________________\n",
      "block5_conv2 (Conv2D)        (None, 10, 10, 512)       2359808   \n",
      "_________________________________________________________________\n",
      "block5_conv3 (Conv2D)        (None, 10, 10, 512)       2359808   \n",
      "_________________________________________________________________\n",
      "block5_pool (MaxPooling2D)   (None, 5, 5, 512)         0         \n",
      "=================================================================\n",
      "Total params: 14,714,688\n",
      "Trainable params: 14,714,688\n",
      "Non-trainable params: 0\n",
      "_________________________________________________________________\n"
     ]
    }
   ],
   "source": [
    "base_model.summary()"
   ]
  },
  {
   "cell_type": "code",
   "execution_count": 63,
…
